AnomalyTransformer(
  (embedding): DataEmbedding(
    (value_embedding): TokenEmbedding(
      (tokenConv): Conv1d(11, 256, kernel_size=(3,), stride=(1,), padding=(1,), bias=False, padding_mode=circular)
    )
    (position_embedding): PositionalEmbedding()
    (dropout): Dropout(p=0, inplace=False)
  )
  (encoder): Encoder(
    (attn_layers): ModuleList(
      (0-2): 3 x EncoderLayer(
        (attention): AttentionLayer(
          (norm): LayerNorm((256,), eps=1e-05, elementwise_affine=True)
          (inner_attention): AnomalyAttention(
            (dropout): Dropout(p=0, inplace=False)
          )
          (query_projection): Linear(in_features=256, out_features=250, bias=True)
          (key_projection): Linear(in_features=256, out_features=250, bias=True)
          (value_projection): Linear(in_features=256, out_features=250, bias=True)
          (sigma_projection): Linear(in_features=256, out_features=10, bias=True)
          (out_projection): Linear(in_features=250, out_features=256, bias=True)
        )
        (conv1): Conv1d(256, 512, kernel_size=(1,), stride=(1,))
        (conv2): Conv1d(512, 256, kernel_size=(1,), stride=(1,))
        (norm1): LayerNorm((256,), eps=1e-05, elementwise_affine=True)
        (norm2): LayerNorm((256,), eps=1e-05, elementwise_affine=True)
        (dropout): Dropout(p=0, inplace=False)
      )
    )
    (norm): LayerNorm((256,), eps=1e-05, elementwise_affine=True)
  )
  (projection): Linear(in_features=256, out_features=11, bias=True)
)


loss: [… time: 4481.463221549988

ID : 502
lr : 0.0001
num_epochs : 1500
k : 0.1
win_size : 90
input_c : 11
output_c : 11
batch_size : 256
dataset : space
mode : train
data_path : dataset/space/8
model_save_path : checkpoints
step : 20
test_model : None
dataset_name : ['EFD_HEPPL_test.csv', 'EFD_HEPPL_train.csv']
e_layers : 3
n_heads : 10
d_ff : 512
…
